2024-09-22 09:09:47,897 - DEBUG - using device: mps...
2024-09-22 09:09:47,897 - DEBUG - initializing DataLoaderLite with B=4, T=32
2024-09-22 09:09:48,384 - DEBUG - loaded 338025 tokens
2024-09-22 09:09:48,384 - DEBUG - 1 epoch = 2640 batches
2024-09-22 09:09:49,107 - DEBUG - model initialized...
2024-09-22 09:09:49,108 - DEBUG - transformer: ModuleDict(
  (wte): Embedding(50257, 768)
  (wpe): Embedding(1024, 768)
  (h): ModuleList(
    (0-11): 12 x Block(
      (ln_1): LayerNorm((768,), eps=1e-05, elementwise_affine=True)
      (attn): CausalSelfAttention(
        (c_attn): Linear(in_features=768, out_features=2304, bias=True)
        (c_proj): Linear(in_features=768, out_features=768, bias=True)
      )
      (ln_2): LayerNorm((768,), eps=1e-05, elementwise_affine=True)
      (mlp): MLP(
        (c_fc): Linear(in_features=768, out_features=3072, bias=True)
        (gelu): GELU(approximate='tanh')
        (c_proj): Linear(in_features=3072, out_features=768, bias=True)
      )
    )
  )
  (ln_f): LayerNorm((768,), eps=1e-05, elementwise_affine=True)
)
2024-09-22 09:09:49,108 - DEBUG - lm_head: Linear(in_features=768, out_features=50257, bias=False)
2024-09-22 09:09:49,117 - DEBUG - weight sharing scheme applied...
2024-09-22 09:09:49,117 - DEBUG - initializing embedding layer: Embedding(50257, 768)
2024-09-22 09:09:49,252 - DEBUG - initializing embedding layer: Embedding(1024, 768)
2024-09-22 09:09:49,254 - DEBUG - initializing linear layer: Linear(in_features=768, out_features=2304, bias=True)
…
        [[ 0.0140, -0.0267, -0.0406,  ...,  0.0260,  0.0218, -0.0329],
         [-0.0408, -0.0217, -0.0068,  ...,  0.0010, -0.0519, -0.0039],
         [-0.0006,  0.0345,  0.0120,  ...,  0.0267,  0.0131, -0.0156],
         ...,
         [-0.0180,  0.0083,  0.0216,  ...,  0.0510, -0.0045,  0.0275],
         [ 0.0111,  0.0245,  0.0037,  ...,  0.0176, -0.0310,  0.0435],
         [ 0.0078,  0.0059, -0.0470,  ...,  0.0097, -0.0547, -0.0439]]],
       device='mps:0', grad_fn=<AddBackward0>)
2024-09-22 09:09:50,852 - DEBUG - forwarding the block of transformer...
2024-09-22 09:09:50,852 - DEBUG - block: Block(
  (ln_1): LayerNorm((768,), eps=1e-05, elementwise_affine=True)
  (attn): CausalSelfAttention(
    (c_attn): Linear(in_features=768, out_features=2304, bias=True)
    (c_proj): Linear(in_features=768, out_features=768, bias=True)
  )
  (ln_2): LayerNorm((768,), eps=1e-05, elementwise_affine=True)
  (mlp): MLP(
    (c_fc): Linear(in_features=768, out_features=3072, bias=True)
    (gelu): GELU(approximate='tanh')
    (c_proj): Linear(in_features=3072, out_features=768, bias=True)
  )
)
2024-09-22 09:09:50,852 - DEBUG - block (forward section): Started... Block
2024-09-22 09:09:50,852 - DEBUG - block (forward section): x size: torch.Size([4, 32, 768])
2024-09-22 09:09:50,874 - DEBUG - causal self attention (forward section): x size: torch.Size([4, 32, 768])
2024-09-22 09:09:50,875 - DEBUG - causal self attention (forward section): B=4, T=32, C=768
…
